app/src/main/assets/heart_model.tflite (tflite, 13576 bytes, 5 tensors)

sequential/dense_1/BiasAdd/ReadVariableOp f4 [32]
0.0980483 0.074493475 0.3838759 0.13957088 0.2955038 0.16181557 0.08813594 0.25761363
0.2682846 0.07083825 -0.32727215 0.096594006 0.2102704 0.082151346 0.17626178 0.33952498
-0.09847545 -0.11664133 0.25198215 -0.010975358 0.12328151 -0.2833223 -0.12373514 0.09327443
0.047310866 0.18612324 0.027191559 -0.08105159 0.24849051 -0.12906824 0.06290325 0.36967272
00000000: 8ccd c83d 0990 983d 628b c43e abeb 0e3e
00000010: 464c 973e fbb2 253e 9e80 b43d efe5 833e
00000020: 995c 893e a513 913d 3790 a7be 14d3 c53d
00000030: 2051 573e f73e a83d f87d 343e 38d6 ad3e
00000040: 7fad c9bd a6e1 eebd ce03 813e fdd1 33bc
00000050: 047b fc3d 9f0f 91be d968 fdbd aa06 bf3d
00000060: 0ac9 413d 1797 3e3e d5c0 de3c 60fe a5bd
00000070: 4c74 7e3e 772a 04be 6bd3 803d be45 bd3e

sequential/dense/BiasAdd/ReadVariableOp f4 [64]
-0.15330267 -0.061031472 -0.21886666 0.01773039 0.042464003 0.003439623 0.039082654 -0.09877001
0.15013139 -0.1226608 0.046496715 0.021249296 -0.13744582 -0.1759495 -0.054597013 -0.29361635
-0.14988813 -0.14660053 0.060502063 0.091088615 -0.12157848 0.028719772 -0.059512127 -0.1486536
0.013290454 -0.09506246 0.018213853 0.094820246 0.1271103 -0.16722691 0.31642354 0.023746863
-0.18781269 -0.15555659 -0.08155744 -0.17608158 0.08322772 -0.078335136 0.10369296 -0.18217802
-0.044168606 -0.21302152 -0.19052434 0.1123407 -0.1735487 -0.10021494 -0.049006365 0.09834619
-0.120785445 0.20652388 -0.016467202 -0.0020672784 0.032147318 -0.03862944 -0.2025494 -0.04780343
-0.14466774 0.06556299 -0.20190026 -0.009801015 0.03796343 0.065316 0.028861858 -0.05105212
00000000: 60fb 1cbe 23fc 79bd 951e 60be 533f 913c
00000010: bcee 2d3d 4c6b 613b 2215 203d ee47 cabd
00000020: 0bbc 193e 9635 fbbd 5773 3e3d 0113 ae3c
00000030: 99be 0cbe 1b2c 34be 1ea1 5fbd e254 96be
00000040: 467c 19be 731e 16be 03d1 773d ab8c ba3d
00000050: 23fe f8bd ba45 eb3c fdc2 73bd a638 18be
00000060: 34c0 593c 1bb0 c2bd 3835 953c 1e31 c23d
00000070: 3429 023e 883d 2bbe 4402 a23e c888 c23c
00000080: f851 40be 3a4a 1fbe 9607 a7bd bb4e 34be
00000090: 4b73 aa3d 2c6e a0bd fa5c d43d e08c 3abe
000000a0: 24ea 34bd 5022 5abe d018 43be e212 e63d
000000b0: c0b6 31be 7e3d cdbd e6ba 48bd ba69 c93d
000000c0: 5c5e f7bd ff7a 533e 3ae6 86bc 2d7b 07bb
000000d0: e8ac 033d e739 1ebd 1c69 4fbe 88cd 43bd
000000e0: c823 14be e445 863d f1be 4ebe 7094 20bc
000000f0: 8b7f 1b3d 65c4 853d b46f ec3c 071c 51bd

sequential/dense/MatMul f4 [64, 11]
0.14929502 0.09098048 0.013870185 0.22720967 -1.9201686 0.12898974 -0.080517024 0.117029645
0.09648821 0.03767263 -0.04956504 -0.19139382 -0.110705964 0.26076195 -0.17468587 0.22753617
-0.018881781 0.09021889 0.09330022 0.041909102 -0.2683267 -0.0057775294 -0.042887118 -0.20177157
0.29647684 -0.19526504 0.091670886 -0.024697 -0.123309195 -0.2038666 0.17193717 0.16334124
0.075012274 0.23388912 -0.19354258 0.25254464 0.050801326 0.30951646 0.17702375 -0.18473619
-0.035337426 -0.17456998 0.004680914 -0.16107509 0.06948706 -0.110303946 0.124265134 0.015882721
-1.9579903 0.11102016 -0.075491436 0.07950412 -0.3261864 -0.07876326 -0.005947923 0.16543162
-0.17403677 -0.056591615 -0.17859596 -0.0051909694 -0.022048933 -0.0546309 0.120154485 0.0040383614
0.016356168 0.22502923 0.00823705 0.055766683 0.10052117 -0.14107642 -2.2294502 -1.1051259
-0.028586265 -0.028888 0.0032697583 0.029457044 -0.025526488 -0.23241372 -0.021908756 -0.014102722
-0.09174701 -0.18974572 -0.51073796 -0.33902356 -0.17362773 -0.2713835 0.24341339 0.06458558
-0.06858308 -0.11611147 0.14126015 0.011290165 -0.16889742 0.054707143 0.17812032 0.023268206
0.069790155 -0.32784587 0.44172272 -0.29766223 0.25551167 0.124343865 0.18501897 0.26912013
0.05729442 0.29743433 -0.04826452 -0.09887638 -0.25943723 -0.19629706 -0.066562235 -0.2122928
-0.00696364 -0.20405552 -0.61281306 -0.88526624 -0.24857688 -0.12485271 0.108004875 0.20204012
-0.16304278 -0.38203767 -0.009347719 0.031552948 0.045598015 0.022128167 0.1554148 -0.2306185
0.15513627 0.12362517 0.1106091 -0.21717413 -0.043754704 -0.092881344 -0.0067622634 0.19835617
0.033817958 -0.14081831 0.05901651 -0.10939004 0.096246675 0.05445793 0.19661026 0.20675994
-0.14487697 0.21975116 -0.3173408 0.24651481 0.19300012 -0.027456995 0.21736766 -0.18953833
0.10614232 -0.13071868 -0.0686769 -0.11540981 0.094826885 -0.08426937 0.56360924 0.16094388
-0.022958256 -0.05613075 0.1436806 -0.10076499 -0.027958047 -0.22880314 0.06386928 0.0106216315
-0.029034179 0.019692589 0.1020898 0.5151426 -0.002836202 0.121901274 -0.040546387 -0.050675068
-0.12374076 0.017876385 -0.02084897 0.15201281 -0.5256008 0.094343096 -0.24664894 0.0715866
-0.123269446 -0.19163291 0.052131813 -0.14662093 -0.0015322063 0.18883765 -0.14694749 -2.2087724
0.12238487 -0.13144425 0.17633548 0.06904944 -0.006297808 -0.09004508 0.0691965 0.23508555
-0.23934679 -0.009809472 0.14411448 0.16714746 0.3006103 -0.1917412 0.19346653 -0.027223067
-0.07482019 -0.13878334 -0.09772839 0.21241574 0.12497222 0.13780166 0.037877463 0.17647117
-0.2818695 -0.013580848 0.15321031 -0.09678081 -0.010320891 0.065045714 0.1687137 -0.22416182
0.037772186 -0.15583575 -0.046322916 0.14058624 0.25797373 -0.19827114 -0.26960275 -0.19826433
-0.16064179 0.21253256 -0.30852744 -0.24793555 0.061965242 -0.0660581 0.18170808 0.25203377
0.047664423 0.23403078 0.061360527 0.06872407 -0.037534487 0.032778542 -2.3666196 0.117906496
-0.010108748 0.040900387 0.05969713 -0.18977971 0.10238912 -0.024247155 -0.029770277 -0.084559366
00000000: cbe0 183e f953 ba3d c63f 633c a7a9 683e
00000010: 16c8 f5bf e315 043e 1ce6 a4bd 3dad ef3d
00000020: 9c9b c53d 9e4e 1a3d b604 4bbd befc 43be
00000030: cfb9 e2bd 9782 853e dae0 32be 3eff 683e
00000040: f7ad 9abc aec4 b83d 3014 bf3d e1a8 2b3d
00000050: 1e62 89be 6e51 bdbb 67aa 2fbd 359d 4ebe
00000060: d0cb 973e 8ff3 47be f2bd bb3d 5d51 cabc
00000070: 8889 fcbd 68c2 50be 4c10 303e ed42 273e
00000080: 09a0 993d a180 6f3e 0730 46be 884d 813e
00000090: 0d15 503d f178 9e3e b745 353e 7c2b 3dbe
000000a0: fabd 10bd 79c2 32be 5a62 993b def0 24be
000000b0: 3b4f 8e3d 09e7 e1bd b87e fe3d 7b1c 823c
000000c0: 6d9f fabf 8a5e e33d 419b 9abd 0ed3 a23d
000000d0: e701 a7be a24e a1bd cbe6 c2bb e866 293e
000000e0: b236 32be 9ccc 67bd dce1 36be 0219 aabb
000000f0: f79f b4bc a7c4 5fbd 8e13 f63d 3b54 843b
00000100: 5ffd 853c 106e 663e b1f4 063c 9b6b 643d
00000110: 0bde cd3d 5676 10be 50af 0ec0 c474 8dbf
00000120: be2d eabc 87a6 ecbc 7149 563b e64f f13c
00000130: ed1c d1bc ddfd 6dbe fe79 b3bc 1a0f 67bc
00000140: dbe5 bbbd b44c 42be b9bf 02bf 7f94 adbe
00000150: 78cb 31be c7f2 8abe 5c41 793e 7245 843d
00000160: 4975 8cbd dacb edbd 80a6 103e 62fa 383c
00000170: 72f3 2cbe 9914 603d 2c65 363e f79c be3c
00000180: 24ee 8e3d 6adb a7be 7b29 e23e 2f67 98be
00000190: 6dd2 823e ffa7 fe3d 9d75 3d3e 1dca 893e
000001a0: 8ead 6a3d 5049 983e 04b1 45bd b37f cabd
000001b0: f5d4 84be 1902 49be c851 88bd 4963 59be
000001c0: 3f2f e4bb eef3 50be 51e1 1cbf cfa0 62bf
000001d0: f08a 7ebe c7b2 ffbd a931 dd3d 9be3 4e3e
000001e0: b0f4 26be 719a c3be 2d27 19bc aa3d 013d
000001f0: fcc4 3a3d 2146 b53c 0f25 1f3e 4227 6cbe
00000200: 0bdc 1e3e 312f fd3d 0687 e23d e562 5ebe
00000210: 2238 33bd 9338 bebd fa95 ddbb e11d 4b3e
00000220: b384 0a3d ad32 10be 4cbb 713d e307 e0bd
00000230: fa1c c53d 470f 5f3d 3354 493e e1b8 533e
00000240: a15a 14be 7306 613e 7e7a a2be 616e 7c3e
00000250: d3a1 453e 7eed e0bc a195 5e3e 5616 42be
00000260: 2561 d93d 1edb 05be 79a6 8cbd fa5b ecbd
00000270: 9934 c23d 6b95 acbd b248 103f 79ce 243e
00000280: f412 bcbc 5be9 65bd 0221 133e e05d cebd
00000290: 4608 e5bc 5f4b 6abe e6cd 823d 5a06 2e3c
000002a0: 16d9 edbc 5a52 a13c 7514 d13d 63e0 033f
000002b0: 93df 39bb 60a7 f93d f813 26bd a990 4fbd
000002c0: cc6b fdbd 7f71 923c 76cb aabc 3fa9 1b3e
000002d0: c68d 06bf f436 c13d 8a91 7cbe ff9b 923d
000002e0: b174 fcbd 6b3b 44be 2b88 553d cc23 16be
000002f0: 50d4 c8ba a85e 413e 6779 16be 875c 0dc0
00000300: eba4 fa3d 5299 06be 4a91 343e cb69 8d3d
00000310: d85d cebb 8e69 b8bd e5b6 8d3d 44ba 703e
00000320: 5317 75be e8b7 20bc bf92 133e b428 2b3e
00000330: 98e9 993e ce57 44be 171c 463e e902 dfbc
00000340: 543b 99bd 381d 0ebe d225 c8bd 8383 593e
00000350: 6ff1 ff3d e11b 0d3e 6625 1b3d dcb4 343e
00000360: 3351 90be 3582 5ebc 2ae3 1c3e 0435 c6bd
00000370: f418 29bc b036 853d 49c3 2c3e ad8a 65be
00000380: 02b7 1a3d 6893 1fbe 19bd 3dbd d7f5 0f3e
00000390: 2215 843e 9707 4bbe 5f09 8abe ce05 4bbe
000003a0: 487f 24be 23a2 593e 4ff7 9dbe d1e2 7dbe
000003b0: 44cf 7d3d 7849 87bd af11 3a3e 920a 813e
000003c0: c53b 433d c4a5 6f3e 2d55 7b3d 35bf 8c3d
000003d0: c3bd 19bd cb42 063d b276 17c0 f678 f13d
000003e0: 2a9f 25bc 2a87 273d fa84 743d 9d55 42be
000003f0: 63b1 d13d f8a1 c6bc cce0 f3bc 762d adbd

sequential/dense_1/MatMul f4 [32, 64]
-0.54789424 -0.015463574 0.07130115 -0.19180067 0.14994511 -0.0064987573 0.11341403 0.30168805
0.14707777 0.0030434942 0.34203747 -0.19309366 -0.013377642 -0.25732815 -0.24561252 -0.4564234
0.1512451 -0.18095694 -0.07904529 0.026027018 0.119026534 -0.20837419 -0.097195774 -0.09479056
-0.03988514 0.012261165 0.06770063 -0.002579736 0.21288295 0.019957587 0.18524542 -0.089767925
-0.29155737 -0.15738672 -0.29130635 -0.3020331 0.17679706 0.03877547 -0.04789968 0.17313673
0.27461886 -0.19095767 -0.12815335 -0.123796985 0.0007654579 0.17912254 0.045346092 0.36836004
-0.11238772 0.01420982 0.25867715 -0.30473474 -0.11734081 -0.23838237 -0.07387112 0.17951405
0.15912013 0.2853801 0.028122354 0.014434879 -0.034393597 0.17540488 -0.038698997 0.22705954
-0.10832122 -0.3226609 0.01151944 -0.18053529 0.12906964 0.10634331 0.15861903 0.0017364331
0.032522626 -0.06279514 0.29859042 0.3089223 -0.12690414 -0.11626683 -0.15457477 -0.29700798
-0.17605238 -0.33031657 -0.2665958 0.04541209 0.09158263 0.11424456 -0.13627723 -0.049184
0.14259554 0.081120126 0.024409331 -0.006294358 0.037167057 -0.05573225 0.027833685 -0.08562965
-0.09556366 -0.24718405 0.057681818 -0.30533344 0.074754894 0.2649355 0.11252623 0.35107943
0.025580721 -0.19242251 -0.19342467 -0.26377738 0.14757954 0.113273814 -0.15516742 0.013008362
-0.14248194 0.25537553 0.31886148 -0.34872454 0.3348232 -0.12391025 0.05354958 -0.12452947
-0.08585384 0.05496918 0.18106824 0.3234785 0.17620398 0.120788746 0.12562665 -0.08545761
-0.7114831 -0.08982901 -0.15044563 -0.026056945 0.0033574917 0.104805574 -0.34837693 0.07136593
0.15531713 0.14996807 0.1971143 0.2894364 0.15696955 0.12698662 0.056492325 -0.030177142
0.22237782 -0.5012383 -0.07178121 -0.11999272 0.07756765 0.20769314 -0.42685455 -0.198621
0.2308262 -0.075049944 -0.36410207 -0.095921606 -0.6736847 -0.02553899 0.20149668 -0.018163223
-0.019998273 0.013786066 0.08405576 -0.48994216 0.22932084 -0.3841168 -0.46385023 -0.24707873
-0.041082162 -0.36768913 -0.070603654 0.12949425 0.01717752 -0.13596894 0.016592914 0.090034276
-0.16370308 0.012672167 0.2774206 0.21460037 0.26573345 -0.04259719 0.07900196 0.0040832264
-0.23266624 -0.046164684 -0.14055322 0.16127409 -0.22298537 0.26715508 -0.4342719 -0.1990843
0.060764786 0.10024273 -0.2721976 -0.028788242 -0.072835475 0.15942752 0.08657675 0.096273765
-0.038934294 -0.29048565 -0.12805608 0.1863803 0.13601963 -0.3435687 0.009565544 -0.263177
0.04569108 -0.06164054 -0.042984735 -0.10454912 -0.42387542 0.035449386 -0.1622211 -0.46181834
0.10410636 -0.25616726 -0.47725478 0.13854612 -0.72915924 -0.33441857 0.03475649 0.023213966
0.066414036 0.07069724 -0.20124024 -0.45572907 0.101531066 0.25502133 -0.12557957 0.028653651
0.12185202 -0.19315338 -0.17111783 0.04864168 0.12839925 0.080462545 -0.24579817 0.18820477
-0.012561161 0.14745243 -0.21608385 -0.17041193 -0.18474351 -0.10905509 -0.026797885 -0.31113622
0.06247835 0.27838597 0.085294135 -0.08576347 0.15187463 -0.27881715 -0.15247008 -0.3578603
00000000: cc42 0cbf ee5a 7dbc 5606 923d 6567 44be
00000010: 368b 193e 87f3 d4bb 9d45 e83d db76 9a3e
00000020: 8e9b 163e 5c75 473b 891f af3e 58ba 45be
00000030: e62d 5bbc 84c0 83be d981 7bbe 54b0 e9be
00000040: ffdf 1a3e c74c 39be 7fe2 a1bd 9d36 d53c
00000050: 2fc4 f33d 0b60 55be 940e c7bd 8e21 c2bd
00000060: 9a5e 23bd 0ee3 483c a1a6 8a3d ca10 29bb
00000070: fdfd 593e 187e a33c fab0 3d3e 3fd8 b7bd
00000080: 0247 95be fc29 21be 1b26 95be 15a4 9abe
00000090: 4a0a 353e 07d3 1e3d 7432 44bd c14a 313e
000000a0: d89a 8c3e 688a 43be a23a 03be 4689 fdbd
000000b0: 03a9 483a e66b 373e d3bc 393d b099 bc3e
000000c0: 882b e6bd 4ed0 683c 5571 843e 3106 9cbe
000000d0: 6150 f0bd 821a 74be be49 97bd 88d2 373e
000000e0: 63f0 223e 571d 923e da60 e63c 4580 6c3c
000000f0: 4de0 0cbd 569d 333e d782 1ebd 4c82 683e
00000100: 84d7 ddbd cf33 a5be 09bc 3c3c 3ede 38be
00000110: d52a 043e 85ca d93d 076d 223e 0799 e33a
00000120: 7236 053d bd9a 80bd d8e0 983e 102b 9e3e
00000130: 29f3 01be 4e1d eebd d948 1ebe 6e11 98be
00000140: 1347 34be 411f a9be 3f7f 88be 0702 3a3d
00000150: ad8f bb3d 0df9 e93d 428c 0bbe 2975 49bd
00000160: 9104 123e 4f22 a63d 14f6 c73c e740 cebb
00000170: 7c3c 183d 8047 64bd 7803 e43c 995e afbd
00000180: e1b6 c3bd d11d 7dbe c543 6c3d aa54 9cbe
00000190: 1819 993d a0a5 873e 2774 e63d afc0 b33e
000001a0: a98e d13c 680a 45be 1e11 46be d40d 87be
000001b0: 171f 173e 1afc e73d 35e4 1ebe 0621 553c
000001c0: c9e6 11be 95c0 823e d041 a33e 068c b2be
000001d0: f26d ab3e a8c4 fdbd ce56 5b3d 4f09 ffbd
000001e0: 23d4 afbd 5d27 613d f469 393e f99e a53e
000001f0: d16e 343e 1760 f73d 46a4 003e 6604 afbd
00000200: c223 36bf 46f8 b7bd 6b0e 1abe 6075 d5bc
00000210: 5d09 5c3b 4ea4 d63d 765e b2be 4d28 923d
00000220: 740b 1f3e 3b91 193e 55d8 493e 0231 943e
00000230: a0bc 203e c808 023e 7f64 673d 0e36 f7bc
00000240: 03b7 633e 2751 00bf 0702 93bd bebe f5bd
00000250: cadb 9e3d 83ad 543e ae8c dabe 4e63 4bbe
00000260: b45d 6c3e c9b3 99bd 966b babe 8c72 c4bd
00000270: 9a76 2cbf 2537 d1bc 2555 4e3e 0acb 94bc
00000280: 6bd3 a3bc f4de 613c 6d25 ac3d b3d9 fabe
00000290: 15d3 6a3e f5aa c4be c77d edbe 3502 7dbe
000002a0: c545 28bd c041 bcbe a698 90bd 249a 043e
000002b0: dfb7 8c3c 713b 0bbe dded 873c e463 b83d
000002c0: c8a1 27be ec9e 4f3c 130a 8e3e 33c0 5b3e
000002d0: 370e 883e 647a 2ebd c8cb a13d 96cc 853b
000002e0: 0f40 6ebe 2e17 3dbd 2fed 0fbe 0925 253e
000002f0: 4756 64be 8dc8 883e e358 debe c1dc 4bbe
00000300: 7fe4 783d 0f4c cd3d 7c5d 8bbe 52d5 ebbc
00000310: c42a 95bd f840 233e 274f b13d 2e2b c53d
00000320: 9179 1fbd 89ba 94be 2221 03be 7ada 3e3e
00000330: bb48 0b3e 3de8 afbe cdb8 1c3c 23bf 86be
00000340: 9226 3b3d ca7a 7cbd c310 30bd d91d d6bd
00000350: 3306 d9be 6033 113d 4a1d 26be 7473 ecbe
00000360: b735 d53d 5b28 83be bd5a f4be 09df 0d3e
00000370: 2eaa 3abf e938 abbe d25c 0e3d 372b be3c
00000380: 1504 883d b7c9 903d ec11 4ebe 5255 e9be
00000390: 85ef cf3d 2892 823e ee97 00be 10bb ea3c
000003a0: 8d8d f93d 00ca 45be 8339 2fbe 803c 473d
000003b0: 187b 033e 8cc9 a43d 84b2 7bbe c0b8 403e
000003c0: 54cd 4dbc c5fd 163e 1645 5dbe 7780 2ebe
000003d0: 672d 3dbe 4658 dfbd 3d87 dbbc 3f4d 9fbe
000003e0: 4ce9 7f3d 9b88 8e3e b1ae ae3d c2a4 afbd
000003f0: 0685 1b3e 1fc1 8ebe 1e21 1cbe 7739 b7be

sequential/dense_2/MatMul f4 [1, 32]
-0.31483358 -0.15155986 0.23472574 0.2128358 0.22949874 0.4901087 -0.2281697 0.5003335
0.23943828 -0.28964627 -0.31876773 0.15572962 0.19978806 -0.13102783 0.47166097 0.4610886
-0.34297624 -0.12334629 0.2981242 -0.049120378 0.22501278 -0.12226444 -0.22118461 -0.3357798
-0.22528972 0.22970667 -0.08938695 -0.15592915 0.4075858 -0.06558856 -0.2293615 0.20549525
00000000: de31 a1be 8232 1bbe f25b 703e a1f1 593e
00000010: b801 6b3e 87ef fa3e 51a5 69be db15 003f
00000020: 4f2f 753e 844c 94be 8635 a3be 9677 1f3e
00000030: 3e95 4c3e 292c 06be 8c7d f13e ce13 ec3e
00000040: 959a afbe fb9c fcbd bca3 983e 7332 49bd
00000050: c069 663e c765 fabd 387e 62be 54eb abbe
00000060: 59b2 66be 3a38 6b3e 8110 b7bd e4ab 1fbe
00000070: 16af d03e 4c53 86bd bedd 6abe 596d 523e
